assets/Model.tflite (tflite, 291716 bytes, 8 tensors)

dense_3/bias f4 [2]
000000 b9 12 fa 3c 9c 0b 06 bd
       0.030526506 -0.032725915

dense_2/bias f4 [512]
000000 2b 63 4e bd 4f 71 ca bb 21 51 04 3d 89 18 81 3b
       -0.050387543 -0.006178058 0.032303933 0.0039396924
000010 19 87 6e 3e 25 58 09 3d 8b dc c5 bb 74 2e c7 3d
       0.23293723 0.033531327 -0.0060382537 0.09725657
000020 36 a0 f1 bc c3 3d 7a 3c 62 58 92 3d 5f ba a6 bd
       -0.02949534 0.015273514 0.07145764 -0.08141016
000030 f0 97 e2 bc 59 47 c1 bd cf cf 63 bb 1d 5b 8d bc
       -0.02766034 -0.094374366 -0.0034761315 -0.01725536
000040 9f 57 98 bd 04 76 36 bd 17 13 37 3d 9e fb 66 3d
       -0.074385874 -0.044546142 0.04469594 0.056392305
000050 8b 7e 7b bd 85 83 13 bd f4 11 88 bd 5a 95 7f 3d
       -0.061399978 -0.0360141 -0.06644049 0.062398292
000060 db 64 f3 bc 7e 94 9a bd 1d 64 fd 3d 3b aa ad 3c
       -0.029711178 -0.07547854 0.12372611 0.021199336
000070 31 ca e7 bc bb de 55 bd 82 cb 9f bc 58 6c 6d bc
       -0.028294655 -0.052214365 -0.01950622 -0.014491163
000080 c3 a3 87 bc 06 8d 50 bd 46 3d f5 3d b9 01 bd 3d
       -0.01655758 -0.05091574 0.119745776 0.09228844
000090 f1 aa 1c 3e 0e eb cd bd 48 08 df bd 0d c1 d4 3d
       0.15299584 -0.10054599 -0.108902514 0.10388384
0000a0 6a a6 6a bc b3 9f a9 bd 93 85 03 bd 4d 04 aa bd
       -0.014321903 -0.08282413 -0.03210981 -0.083016016
0000b0 71 34 9f bd ba ed 8e bc fa b1 93 3d d0 2f 9f 3d
       -0.07773674 -0.017447341 0.07211681 0.077727914
0000c0 ee 21 d6 bc cf b9 19 3e 0f 90 c0 3c cc 48 87 bd
       -0.026139226 0.15012287 0.023506192 -0.06605682
0000d0 70 b8 97 bd 02 26 d2 bd f9 a2 a4 bc 44 e7 d0 3d
       -0.074082255 -0.10261156 -0.020097243 0.102003604
0000e0 bc a7 1b bc 9c 38 1a bd fc 99 81 bd d6 aa f4 3a
       -0.00950044 -0.037651643 -0.06328198 0.0018666636
0000f0 db 56 89 b7 c1 83 8d bd 47 f7 14 bd b9 54 3a 3e
       -1.6372118e-05 -0.06909896 -0.036368635 0.18196382
000100 5b a7 b5 bc ef 8f e3 3d 0d 29 f5 3d 8b 9f c0 bc
       -0.022174528 0.111114375 0.119707204 -0.023513576
000110 15 98 fd bc c5 55 16 3e 09 d4 7c 3c 66 9d 01 bc
       -0.030956307 0.14681156 0.0154314125 -0.007911062
000120 73 09 2d 3e 06 01 11 bd 4c df 86 bd f6 e5 14 bc
       0.16898136 -0.035401367 -0.06585559 -0.00908803
000130 dd 10 e3 3c 76 2a bb bd 4e 80 39 bc b4 37 9a bc
       0.027718002 -0.09138958 -0.011322094 -0.01882539
000140 9d 3f b1 3b 3f ea 19 3e 65 dc 1f 3d 89 53 7c 3d
       0.0054091946 0.15030764 0.039028544 0.061603103
000150 c6 1e 3d be 31 49 c2 bd 1f da 0b 3c 58 ca 6d bc
       -0.1846877 -0.094866164 0.008535891 -0.014513575
000160 2b f3 24 bd 5b bf 6e 3d f3 73 94 bd 27 70 41 3d
       -0.040270966 0.05828796 -0.07248678 0.047226097
000170 52 7f 9a bd 78 63 a3 3c 1b 00 9f bd 0e e5 b2 3d
       -0.07543816 0.019944891 -0.07763692 0.08735095
000180 a1 4b 5c 3e e3 88 0f be 5a 3f 5a bd ef 4e 49 3e
       0.21513225 -0.14017062 -0.053283073 0.19659017
000190 0b bd 24 3e ce 8d 0e bd 26 c6 2a bd 92 00 24 bd
       0.16087739 -0.034803204 -0.041692875 -0.040039606
0001a0 90 48 c0 bd 9a 36 b4 3b e6 65 bb 39 08 a1 70 bd
       -0.0938884 0.005499673 0.0003574334 -0.05874732
0001b0 c7 1e d3 bd d1 0a 90 3d 2e d3 61 bd d7 98 16 3d
       -0.10308605 0.07033313 -0.055133037 0.036766853
0001c0 d6 9e 5e ba 83 d0 a0 bd 15 b8 83 bd 46 16 73 3d
       -0.00084922963 -0.078522705 -0.06431595 0.059347413
0001d0 46 f1 95 bc 83 5a bb 3d 21 47 13 bd e8 00 08 bc
       -0.018303525 0.09148123 -0.035956506 -0.008300997
0001e0 b4 16 74 bc 7d ac 94 bc e5 ba fd bd 18 7d b1 bd
       -0.014897991 -0.018148655 -0.12389163 -0.08666438
0001f0 5c dd 99 3c b5 8a 60 3c 03 a0 9b bd 10 e3 43 bd
       0.01878231 0.013704945 -0.07598879 -0.047823966
000200 da e5 14 bc b9 cf cb bc 7c 14 39 3e 74 38 71 3e
       -0.009088004 -0.024879323 0.1807422 0.23556691
000210 b3 61 24 3c 54 28 34 bc 5d d1 41 bd 9d 2e 0e 3e
       0.010033059 -0.010995943 -0.047318805 0.13884969
000220 03 aa 33 bd c5 6c 61 bd 10 53 23 3e 63 4f 35 3d
       -0.043863308 -0.05503537 0.15949655 0.044265162
000230 9b f1 09 3d 8c af ae 3d dc 4f cf bd 67 b5 25 3e
       0.03367768 0.08529577 -0.10122654 0.16182481
000240 19 ad ce bd 4a 4c b4 3c 1b fc 0a 3e f4 f8 94 3c
       -0.100916095 0.022009034 0.13572733 0.018185116
000250 75 a6 86 bd b1 9d 08 bd 81 60 2f 3e 8d 92 b0 3d
       -0.06574718 -0.03335351 0.17126657 0.08621702
000260 92 10 46 bc 08 00 c0 bc f7 8f 1d bd f3 cc 50 bd
       -0.012088912 -0.023437515 -0.038467374 -0.050976705
000270 9c bf 5a 3d 13 38 b5 bd 9d 29 05 bd 59 52 1a be
       0.05340539 -0.08848586 -0.03251039 -0.15070476
000280 59 03 80 3d ef e5 b9 bd 95 f5 51 3d 49 81 b0 bd
       0.062506385 -0.090770595 0.051259596 -0.08618409
000290 38 2d ce bb e3 31 98 bd b1 9a cc bd 68 cd 4f bd
       -0.0062920116 -0.0743139 -0.099904425 -0.050733
0002a0 92 99 2f bd cd 78 86 bd 0f 6f 7b 3e 7b 9d cc b9
       -0.042871065 -0.0656601 0.24554084 -0.00039027244
0002b0 68 05 16 be 19 4b 63 3c 4d 45 ba bd 7a d1 e6 3d
       -0.146505 0.013872885 -0.09095249 0.11270423
0002c0 a6 5d d2 bd 14 0c b0 3c 35 57 88 3d bb b0 b8 bb
       -0.10271768 0.021490134 0.066572584 -0.0056363023
0002d0 10 75 b6 bd 0b 59 0e 3d ec d8 69 bd b7 b1 1f be
       -0.08909047 0.034752887 -0.05709164 -0.15595137
0002e0 e3 90 00 3d 65 5a 9c 3d 9d 9d d4 bd 62 36 b5 bc
       0.031388175 0.07634429 -0.10381625 -0.022120658
0002f0 42 40 b1 bd 62 34 26 3e d6 53 04 3e a9 a6 a4 3d
       -0.08654834 0.1623092 0.12922606 0.080396004
000300 06 94 dd 3c 03 66 e7 3d 35 e5 a7 bd 93 a7 88 3c
       0.027048122 0.11298754 -0.08198015 0.016681468
000310 bc c5 88 bc a2 3a f8 3d a2 c8 e8 bc 6f 98 6e bd
       -0.01669585 0.12120558 -0.028415982 -0.05825084
000320 b4 91 7e 3e e5 db 1b bd 9e 9e 1d bd 39 c2 c7 bd
       0.24860269 -0.038051505 -0.038481347 -0.09753842
000330 8f 1c c6 bd 1f 52 cd 3d 40 f6 1a bd 6a 54 f4 3c
       -0.09673416 0.10025429 -0.0378325 0.029825408
000340 4f 64 62 bc 3a e1 88 3d 89 0b ac 3d 2f 11 e2 bc
       -0.013817861 0.066835836 0.08400638 -0.027596084
000350 ce ac db 3d 0c 07 7a 3d ff e4 a1 bd 94 08 d5 bc
       0.10726319 0.061041877 -0.07905006 -0.026005067
000360 3f c7 8f bd b8 9c b7 bd f4 a5 8d bd 07 98 50 bd
       -0.07020425 -0.089654386 -0.06916419 -0.050926235
000370 11 b8 79 3d 59 1a 83 bd 1c 4b e1 bd de 77 fb 3d
       0.060966555 -0.0640151 -0.11000654 0.12278722
000380 f1 63 47 bd 0d ff 2e 3b 89 a0 9a bd eb 03 04 3e
       -0.048679296 0.0026702315 -0.07550151 0.1289212
000390 51 86 b7 3d 2e ac fc bd 3c 0c 3c 3e f0 17 38 3d
       0.08961166 -0.12337528 0.18364042 0.044944704
0003a0 8f 6e 23 3c c3 93 28 3d 1c ae 0b bc a6 e0 d3 bd
       0.00997509 0.04115654 -0.008525398 -0.10345583
0003b0 53 51 39 3c 24 1a a1 bc c1 ed a3 bd b2 af d2 bd
       0.011310893 -0.019665785 -0.08004332 -0.102874175
0003c0 64 94 f3 3d db 8f ea 3a 58 f0 31 3c 94 b0 91 bc
       0.11893538 0.0017895655 0.010860525 -0.017784394
0003d0 8c c8 4f 3d 08 8e 73 bd 86 eb a5 bd eb db 9e bd
       0.050728366 -0.059461623 -0.08101563 -0.0775679
0003e0 dc 6b 80 bd 7d 57 d6 bd 83 38 e4 bd db 51 e7 bd
       -0.062705725 -0.10465906 -0.11143591 -0.112949096
0003f0 a7 71 4e bd c9 3d 22 be 40 b0 a1 bd 0b d5 cc bd
       -0.050401356 -0.15843882 -0.07894945 -0.10001572

conv2d_3/bias f4 [32]
000000 d0 f5 69 be 2d 3c 63 be 04 b8 cd bd 3b 4e d1 bc
       -0.22847676 -0.22190924 -0.10044864 -0.025549999
000010 f3 18 0a be 15 30 77 3d 05 c8 4c 3e 06 7e 14 3e
       -0.1348608 0.06034859 0.19998176 0.14501199
000020 a3 7e ce 3d ec 51 c8 3d 5a e5 9a 3a 4e d7 6a be
       0.10082748 0.0978125 0.001181762 -0.22933695
000030 b4 42 e7 3d 37 5f 1d be dc 32 8f be 38 ca 29 be
       0.112920195 -0.15368353 -0.2796849 -0.16581047
000040 af 0b d3 3d 74 17 8e 3e 64 2f cf 3c 6b 91 38 3e
       0.10304963 0.27752268 0.025291152 0.18024223
000050 56 4d 96 be 45 3f 60 3e 8f 61 86 be 9b 00 52 3d
       -0.29355878 0.21899135 -0.26246306 0.05127011
000060 ab dc ef bd a0 f0 43 3d a9 42 a7 3d 79 5c 65 3d
       -0.11712011 0.0478369 0.08167011 0.055996392
000070 1d 1b cd 3d c7 5f 19 3e f2 3d 51 3e e5 bf 23 be
       0.10014937 0.14977942 0.20433787 -0.1599117

conv2d_2/bias f4 [16]
000000 df df 52 3b 15 9b a9 be 1a 5c 15 3d 15 ba 78 3c
       0.0032176895 -0.3312613 0.036464788 0.015181084
000010 17 f7 5e 3e 7f 49 a6 3d 23 96 46 3d d3 2d 9a 3e
       0.21773945 0.08119487 0.048483025 0.30113086
000020 14 6b 92 3c 83 06 8c 3e 7a 10 93 3d 7d 96 e4 3c
       0.017873324 0.27348718 0.07180877 0.02790379
000030 27 d5 2f 3c 10 cc b5 3d 4d 7d f7 bc 2c 03 04 be
       0.010731972 0.088768125 -0.030211115 -0.12891835

sequential_1/dense_2/MatMul f4 [512, 128]
000000 d4 6f cd 3d 63 c5 a4 3d f2 5e 32 3e d3 77 26 3d
       0.10031095 0.08045461 0.17419031 0.040641617
000010 1c 67 92 bd bd b1 4c 3e cb 20 a6 3b 6a b6 a1 3e
       -0.07148573 0.19989677 0.005069827 0.31584483
000020 2e ad 27 be b8 65 15 be bc 97 a4 bc cb 06 8f be
       -0.16374657 -0.14589584 -0.020091884 -0.2793487
000030 cd ea d8 3d 00 b6 8f bd 56 48 67 bd 37 b3 11 be
       0.1059166 -0.070171356 -0.05646547 -0.14228521
000040 4a f3 24 be 24 3a 53 3e c1 61 74 be 69 24 85 3e
       -0.16108432 0.20627648 -0.23865415 0.2600434
000050 e6 df d2 bd cc 8a 03 3e d4 c0 df 3b 0d 52 13 be
       -0.102966115 0.12845916 0.006828407 -0.14386769
000060 1d 08 e3 be 2c 1d 2f 3d bd 84 fc bd 71 db 4b 3e
       -0.44342127 0.04275243 -0.12330005 0.19907929
000070 6e 92 bb bd 75 70 9b bb 83 44 00 3e b5 22 b6 bd
       -0.091587886 -0.0047436305 0.12526135 -0.088933386
000080 20 c0 2d bd c5 13 c4 bd 4c 67 a9 3b 77 61 99 3d
       -0.042419553 -0.09574083 0.0051697847 0.07489293
000090 23 c8 13 be 28 1d 8d 3e 79 88 ed 3d 40 83 ad 3e
       -0.14431815 0.27561307 0.11598296 0.33889198
0000a0 cf 78 34 be 80 00 09 3e 18 1b a4 bd ef 40 03 be
       -0.1762421 0.13379097 -0.0801298 -0.12817739
0000b0 f1 c1 b7 bd e6 8c 69 3b de 72 9e 3a b0 4e 14 bc
       -0.08972538 0.003563696 0.0012088676 -0.009051964
0000c0 0a 82 2d 3d 49 14 01 3e 36 db 28 be d2 6b 0f 3c
       0.042360343 0.12605394 -0.16489872 0.008753734
0000d0 84 99 53 3c 7d 80 d9 3d 02 03 db bd 86 b5 93 3e
       0.012915019 0.1062021 -0.10693933 0.2884943
0000e0 ec 50 1a 3d 7a f8 2a 3e 41 e1 e5 3d 01 ca 61 3e
       0.03767483 0.16696349 0.112246044 0.22049715
0000f0 79 82 28 be cd 82 4d 3e 61 c6 12 3d fa 79 90 3c
       -0.16456021 0.20069428 0.03583372 0.017636288
000100 90 34 05 bd 8b 4d 77 3d a7 b8 38 be ac 7b b1 be
       -0.03252083 0.060376685 -0.1803919 -0.34664667
000110 7a e5 7c bd 24 2a b2 be f5 8d a4 be 39 20 03 bf
       -0.061742283 -0.34797776 -0.32139555 -0.5122104
000120 04 e1 3f 3e 27 e0 f9 bd b9 1f ce be 23 6e 8a 3c
       0.1873818 -0.12200957 -0.40258577 0.01689822
000130 f6 e0 c2 3d 3e be ff 3d 93 f6 cb bd a4 e3 03 be
       0.09515564 0.12487458 -0.0995914 -0.12879807
000140 55 a1 d0 be 84 23 99 be 97 12 4c 3e 1c c3 b5 be
       -0.40748087 -0.2990991 0.19928966 -0.3550042
000150 6d 2d 5d 3d f1 98 b7 be b0 43 dd bd 2f 64 3e be
       0.0539984 -0.35858873 -0.10803926 -0.18592905
000160 ad 62 03 3e a3 5b 10 bf 91 16 55 be 02 45 7c be
       0.1283061 -0.56389827 -0.2080939 -0.246357
000170 26 07 dc be 67 54 9f be f8 e1 4e 3e 92 40 c1 bb
       -0.42974204 -0.3111908 0.20203388 -0.00589759
000180 5d 2a 1f be 62 42 0e be 4a 0b 84 3d df 48 c3 be
       -0.15543504 -0.1389251 0.06447466 -0.38141534
000190 91 8b c5 3d fb ea 9e be ee 7b 60 be 09 c3 b3 be
       0.09645761 -0.3103865 -0.21922275 -0.35109738
0001a0 97 aa 86 3e 56 06 13 bf b7 05 cd be b4 4b 77 bd
       0.26302025 -0.5743154 -0.40043423 -0.06037493
0001b0 27 e8 59 3e f5 10 54 3e e2 e0 fc 3d eb 30 e8 3d
       0.21279965 0.20709594 0.123475805 0.11337455
0001c0 05 72 76 be 7f 7a 7e be 11 55 ee 3d 2f f7 6f 3d
       -0.24066932 -0.24851416 0.11637319 0.058585342
0001d0 98 17 1e be be b8 b2 be d5 1f cd bd 9c 75 f1 3c
       -0.15438688 -0.34906572 -0.10015837 0.029475026
0001e0 7b d9 88 3e 80 27 2e be 9d be bb be 1d 0b 5c bd
       0.26728424 -0.17007256 -0.36668864 -0.053721536
0001f0 62 ba cf bd 0b 81 a7 be 26 39 3b be 11 c2 b8 bc
       -0.101429716 -0.3271564 -0.18283519 -0.022553476
000200 79 f1 77 be b2 57 3b 3e 12 5c d6 be ce bb cd be
       -0.24213208 0.18295172 -0.4186712 -0.40182346
000210 38 ca 00 bf 48 43 bd be f6 c1 a8 be 64 cd 07 bc
       -0.5030856 -0.36965394 -0.3296048 -0.008288715
000220 75 7f 9d bc ba 69 b3 bd 99 b4 fc bd 8c a7 c1 be
       -0.019225815 -0.087604 -0.12339134 -0.3782314
000230 be ed 43 3e d5 94 b7 bd 08 4e 95 3c 13 ad b4 bd
       0.1913366 -0.08963934 0.018225685 -0.08822074
000240 55 1c ae 3d d0 af 32 be 7c e9 96 bd ce 67 92 bb
       0.08501498 -0.1744988 -0.07368752 -0.004467941
000250 d3 56 31 3d 7e 48 89 be a8 a8 bc bd fa d0 20 bd
       0.043295693 -0.2681312 -0.09211856 -0.039261796
000260 d9 5e d5 3d 44 33 e6 bd 50 8b 50 be 6e 2b 1d bb
       0.104184814 -0.11240247 -0.20365644 -0.0023982185
000270 cf 60 b9 bd 96 61 aa be 75 a8 5c 3b 3b 07 4a be
       -0.09051668 -0.33277577 0.0033669744 -0.1972932
000280 c3 ff 2a bd 80 ed 8b 3c 7f a4 25 be 46 33 1f 3e
       -0.04174782 0.017081022 -0.16176032 0.15546903
000290 e6 48 54 be d7 6c d3 bd 21 33 0d be c3 18 e8 bd
       -0.20730934 -0.10323494 -0.13789035 -0.11332848
0002a0 2e cf ea bd 6e f2 8a bd 6a 2e a3 bd ea af 98 3d
       -0.11465298 -0.06784521 -0.07967837 0.07455428
0002b0 ca e2 a2 3d 1f 21 91 be 0a e7 bd be 47 2b 92 be
       0.07953413 -0.28345582 -0.3709033 -0.28548643
0002c0 d6 98 1f 3e 8f f7 4b bd 3b 0d 72 ba b0 c9 f9 bd
       0.15585646 -0.049796637 -0.0009233539 -0.12196672
0002d0 aa e6 1d bc 24 f9 99 bd 40 17 56 be a9 60 91 bd
       -0.009637514 -0.07518223 -0.20907307 -0.070985146
0002e0 4e 32 45 3d 84 89 36 be c5 5c 0c be f3 80 a9 3d
       0.048143677 -0.17825896 -0.13707264 0.08276548
0002f0 20 13 ee bd f3 5a 58 bd 80 0e 36 3e c1 2d 4f 3d
       -0.116247416 -0.05282111 0.17778969 0.050580744
000300 d8 c2 85 bc 45 02 95 3d 2e 43 13 be f1 f9 32 be
       -0.01632826 0.072758235 -0.14381096 -0.17478158
000310 8f dc 69 3d cd e8 e7 3d f3 90 2b 3e 5c 4b bc bc
       0.057095107 0.113237 0.16754512 -0.022985153
000320 58 7a 1b 3e 71 61 6a bd 67 cc ab be 9c e4 3d be
       0.15183389 -0.057221834 -0.33554384 -0.18544239
000330 13 7a c0 be 02 d4 08 3e 3f 83 16 3e 52 57 a3 3d
       -0.37593135 0.13362125 0.14698504 0.079756394
000340 09 43 f5 3e a2 f0 ce bd 16 28 f8 3d 22 15 ad 3e
       0.47902706 -0.10104491 0.12117021 0.33805186
000350 7d c9 c6 be bc 8d fc 3d ad 8a 54 3e 54 ff 55 3e
       -0.38825598 0.12331721 0.20756026 0.20898181
000360 6b f4 d4 3d 7b c2 b1 bd 1f 8c f3 3d 44 ce 09 3e
       0.103981815 -0.08679672 0.1189196 0.1345759
000370 cc c3 2b 3e 2f 1a b1 3c 30 55 a2 be cb 4d 31 be
       0.1677391 0.02161893 -0.31705618 -0.17314832
000380 58 a2 9e 3c 44 d6 85 bd c2 e8 06 be 6a f3 ad be
       0.01936452 -0.065350085 -0.13174728 -0.33974773
000390 14 fd 72 3c 75 9f 1c bc 64 41 16 3e 7d d3 cb bc
       0.014830846 -0.009559502 0.14673382 -0.024881119
0003a0 18 30 3c 3e 53 0e 94 3e 34 d8 b7 3d a5 fc 92 bd
       0.18377721 0.2891718 0.08976784 -0.07177094
0003b0 50 d7 0a 3d ee e3 a9 3d 84 96 bb bd 59 01 8d 3e
       0.033896744 0.08295427 -0.09159568 0.2754009
0003c0 34 46 2c be 9c 40 6e 3e 99 16 2a 3e 4c 8a 77 3c
       -0.16823655 0.23266834 0.16610183 0.015108656
0003d0 8a ec 37 be e6 96 05 3d ee d8 a1 3d bc ca 75 bd
       -0.17961326 0.03261461 0.07902704 -0.060007796
0003e0 04 47 d0 bd e0 85 96 3d a1 dd 21 3e 4e 68 8c bd
       -0.10169795 0.073497534 0.15807201 -0.06855832
0003f0 3d 5c 08 3c c8 d9 53 3c f8 20 d9 3e 2f 40 c1 bd
       0.008322773 0.012930341 0.42407966 -0.0943607

sequential_1/dense_3/MatMul f4 [2, 512]
000000 a9 ea 7a 3e 16 d9 98 bd fd 28 24 3e 53 55 c7 3d
       0.24503578 -0.07463281 0.16031261 0.09733071
000010 42 f8 66 3e d6 a1 3c 3e 99 d5 36 3d 1c 8c 60 3d
       0.2255564 0.1842111 0.044637296 0.05482112
000020 56 56 1f bd 12 07 05 3d 88 0c cc 3d b7 b2 10 3e
       -0.038900696 0.032477446 0.09963328 0.14130674
000030 1d 19 68 3c e4 9e 44 bd 83 fc f9 bd 5f 38 ff bd
       0.014166144 -0.048003092 -0.12206366 -0.12461924
000040 55 f2 85 3c 2a 10 c0 bd ab 03 8d 3d 38 de ac be
       0.016350904 -0.09378083 0.06885465 -0.3376329
000050 71 94 ba bd 71 14 96 3c 26 86 1b bd 2e 1e c9 3d
       -0.09110344 0.018320294 -0.03796973 0.098202094
000060 da 3d 6e be 72 24 2d be 18 59 8a 3e 96 d3 08 bd
       -0.23265782 -0.16908434 0.27021098 -0.03340491
000070 25 e5 c3 bd cb 3e 7c bd be d3 14 3e 0f 89 84 bd
       -0.0956519 -0.06158332 0.14533898 -0.06471454
000080 ac ae f1 3c 22 3d e0 bd 23 68 60 3e f6 c0 77 3d
       0.029502235 -0.1094916 0.21914725 0.060486756
000090 6c 03 67 3e 9d 73 09 be 27 e1 d6 bc 6e d4 a1 3d
       0.22559899 -0.13423009 -0.026230408 0.07901846
0000a0 8b 8b 0d be 88 c0 d7 bc 24 f8 37 3d f3 a1 81 3a
       -0.13822763 -0.026336923 0.04491438 0.0009890184
0000b0 30 00 4b bd 2d 7b b2 bd 78 7d ad be c7 a5 c3 be
       -0.049560726 -0.087149 -0.33884788 -0.38212416
0000c0 04 b9 8c bc a1 db 66 3e d5 53 fa bd 13 47 9e bd
       -0.017178066 0.2254472 -0.12223021 -0.077284
0000d0 ac 5a 03 3e 0b de 33 be 7a 7e 63 be 15 89 2c 3e
       0.12827557 -0.17565171 -0.22216216 0.16849168
0000e0 37 0a 4d 3d 2e 49 68 3d 8d 9d 4c 3e 02 ee 8d be
       0.05005857 0.056710415 0.19981976 -0.27720648
0000f0 04 c4 7d 3d ba 83 38 bc 75 9f 75 3e a6 0f 2b 3e
       0.061954513 -0.011261875 0.2398661 0.16705188
000100 0d 78 53 bc bb ff a5 be ba d0 3d 3e dd 97 16 be
       -0.01290704 -0.3242167 0.18536654 -0.14706369
000110 5d 21 32 bb c5 f5 1b 3e b6 df d7 be 96 e3 58 3d
       -0.002718053 0.15230472 -0.42162865 0.052951418
000120 1d 8d e2 3d 59 96 c3 bc b1 c5 76 bd a3 7e 58 bd
       0.110620715 -0.023875402 -0.060247127 -0.052855145
000130 10 38 f3 bd ce c1 34 3d 9d de 6c 3e cd 8e e3 bd
       -0.118759274 0.04413014 0.23131795 -0.111112215
000140 fa bd 6d 3e ee 5f 4a 3e cf e8 92 be ce 46 ad 3d
       0.23217002 0.19763157 -0.28693244 0.084607705
000150 77 f7 5d be fb 1f 29 bd 1f 3e 73 3c c2 af 0a be
       -0.21676432 -0.041290265 0.014846354 -0.13543609
000160 b6 74 cc 3d b6 d2 73 be d5 43 6d 3c cc a1 7e 3e
       0.09983198 -0.23810849 0.014481504 0.24866408
000170 db 58 7c 3e b0 7a 9e 3d 87 2f aa bd 7d ee 05 3c
       0.2464327 0.077382445 -0.08309846 0.008174536
000180 ec cc 0d 3e 81 4b 09 3d df 15 33 3d 52 9c 02 3e
       0.13847703 0.03351927 0.04372203 0.12754944
000190 88 ac 97 3e bc 56 8c 3c 19 37 97 be 6e 44 1b 3d
       0.29623818 0.017131202 -0.29534224 0.037907057
0001a0 92 21 91 bc 59 fd ec 3d 8e 4d 23 bd 60 c9 25 3e
       -0.017716203 0.1157176 -0.039868884 0.161901
0001b0 4d bb 93 3e 7c 79 21 3d 09 91 0e 3e 72 01 3b 3e
       0.28853837 0.039422497 0.13922514 0.1826227
0001c0 11 35 de 3d 74 6b 68 3d 0e 8f e8 3c 77 28 72 3d
       0.10849965 0.0567431 0.028388526 0.05912062
0001d0 01 a1 4d bd ab 1a e7 be de 23 98 bd f8 f7 ec 3c
       -0.050202373 -0.45137534 -0.07428716 0.028926834
0001e0 eb 52 44 3e c7 9c 67 be f4 0b d4 3d da ca 3a 3e
       0.19172256 -0.226184 0.103538424 0.18241444
0001f0 7d 85 7e 3d e3 b0 cf 3d 77 ea c2 3c 29 6b 79 bd
       0.062139023 0.1014116 0.023793442 -0.06089321
000200 5a 45 b6 3e 87 4c b5 3c 0f 33 e5 3d 17 69 b2 3e
       0.35599786 0.022131218 0.11191379 0.34845802
000210 cc d1 71 3d 9b d4 a7 bd 04 93 6a bc b3 cc cb 3c
       0.05903797 -0.08194848 -0.014317278 0.024877882
000220 f5 ad d2 bd 6e 3a 49 3e ba c3 07 3e 4b dd 3b 3e
       -0.10287086 0.19651195 0.13258258 0.18346135
000230 80 6b 82 3b 14 91 2e 3e ef f0 97 3d 33 d5 90 3d
       0.0039801 0.1704753 0.07419001 0.070719145
000240 3b de 34 bb 36 b2 9d bb 6b 9a 16 3e e2 48 8a 3e
       -0.002759828 -0.004812504 0.14707343 0.2700873
000250 47 69 2b 3e 2e 1f 1e bc e4 3a 68 3d e7 ae 82 be
       0.16739379 -0.0096509885 0.056696787 -0.25524065
000260 d6 fe 72 3e 5f e4 86 bd 28 da 96 bd 36 34 ab bd
       0.23730025 -0.06586527 -0.07365829 -0.08359568
000270 08 7d c1 be f7 e7 b0 bc 10 f7 83 39 27 a0 2f 3e
       -0.37790704 -0.021594984 0.00025170343 0.17150937
000280 64 b3 88 3d ba 41 83 3d 59 24 9b 3e 9e c1 6c 3d
       0.06674841 0.06409021 0.3030117 0.057801835
000290 c7 bf 6b be 8a 3c 0d 3d ec 56 c9 bd 6d 87 11 3e
       -0.23022376 0.034481563 -0.09831032 0.14211817
0002a0 92 e6 7a 3b 25 51 98 bc 69 71 a8 3e 9d 49 1f bd
       0.0038284403 -0.01859338 0.32899025 -0.038888562
0002b0 72 10 8b 3e b1 9d bb bd d8 a3 da bc af 09 68 3d
       0.27160984 -0.091609366 -0.026689455 0.05664986
0002c0 6f 77 65 3c b0 62 42 bd c2 a8 87 3d 66 c7 aa bd
       0.014005526 -0.047457397 0.06623985 -0.083388135
0002d0 12 88 e6 3c f5 5f 40 be b0 9c f3 3c 22 6f 1c be
       0.028141055 -0.18786605 0.0297378 -0.15276769
0002e0 3f c5 66 3e ed 65 9b bc 8f f5 44 3e 16 88 1a 3d
       0.22536181 -0.0189695 0.19234298 0.037727438
0002f0 18 57 af bc 50 86 c8 3d 7f 67 ae 3d 65 1b 66 3d
       -0.021403834 0.09791243 0.08515834 0.05617847
000300 6c 24 83 3d 99 56 89 3d b8 aa 8f bc 10 c0 58 3c
       0.06403431 0.0670597 -0.01753746 0.013229385
000310 33 9c c6 3d 73 04 5e 3e 8e 9c d4 bd 65 16 82 be
       0.096977614 0.21681385 -0.10381423 -0.2540771
000320 78 3b 81 3e cd 28 06 bd c7 13 9c 3e b8 81 fb 3d
       0.25240684 -0.032753754 0.3048384 0.12280601
000330 8a da 11 3d cd 82 d5 3c b5 c8 6d 3b 2f d1 61 be
       0.035608806 0.026063347 0.003628296 -0.22052453
000340 f7 ec 7e be 1c 2e 97 be 15 ca 6a 3e 8d dc 45 3d
       -0.24895082 -0.29527366 0.2292865 0.048306037
000350 60 d9 02 3e bf b0 15 3e 67 73 0b 3d 0c 47 83 3a
       0.12778234 0.14618205 0.034045603 0.001001568
000360 cd 8e 72 bd f0 20 17 3d ed b9 22 3d b0 d2 a7 bd
       -0.059218217 0.036896646 0.039728094 -0.08194482
000370 88 1e fc 3d f1 a1 09 3d a1 23 a1 be fb dc 70 3e
       0.12310511 0.033601705 -0.31472495 0.23521797
000380 2c ea 1a be d0 75 b0 be d0 2a e4 bc 6b b7 81 3d
       -0.15128392 -0.34464884 -0.027852446 0.06333812
000390 50 43 01 3e 3f a9 7a bd e1 1e 63 3d 1d f0 ae bd
       0.12623334 -0.061196562 0.05544937 -0.08541892
0003a0 3e 25 e7 3d 15 6b 12 3e e7 b9 93 3e a9 a6 65 3d
       0.112864 0.14298661 0.2885277 0.056067143
0003b0 9b 1d 6f be 72 ad f1 3d 89 ac 98 bc 5e dc 7e be
       -0.23351137 0.1180066 -0.018636959 -0.24888751
0003c0 be 48 84 be e3 70 0e bd 74 b7 17 3d 08 ec 36 be
       -0.25836748 -0.034775626 0.03704019 -0.17863476
0003d0 ed 96 42 3e be 5e 65 be 6e 6b 8e 3d 88 ac 75 3e
       0.19002886 -0.22399423 0.06954084 0.23991597
0003e0 c6 75 3d bd d1 94 e6 bc e8 0c 2c bd a3 ce c5 bb
       -0.046254896 -0.028147133 -0.042004496 -0.006036596
0003f0 56 d4 81 3d 44 bf 6f bd ad 3f ef 3a b2 2c 76 bd
       0.06339328 -0.058532014 0.001825323 -0.06010122

sequential_1/conv2d_2/Conv2D f4 [16, 3, 3, 3]
000000 d3 0c 9e 3a de e4 e6 bd 54 a7 52 bd 34 ee eb bc
       0.0012058265 -0.11274122 -0.051429108 -0.028800108
000010 f9 b3 64 3e 47 a6 48 bd ca 93 ba bd 95 41 38 be
       0.22334279 -0.0489867 -0.0911022 -0.17993768
000020 0d 28 01 3e 10 7a b3 be 52 92 91 be 5f 48 8a bd
       0.12612934 -0.35054064 -0.28431946 -0.06752085
000030 e0 e9 d6 3d 21 9f ae bc 07 8f 28 be a3 92 3f 3e
       0.10493827 -0.021316113 -0.1646081 0.18708281
000040 0e f2 9f 3e 9d 66 90 3d 9e a1 24 3e d3 02 98 3e
       0.3123936 0.07050822 0.16077277 0.29689655
000050 12 ac 96 3e a9 51 01 be ae 58 5f 3e f9 23 e6 bc
       0.29428154 -0.12628807 0.21811172 -0.028093325
000060 b2 37 b4 bd 3a 05 8b be 54 08 c5 be ba a4 19 3e
       -0.087996855 -0.27152425 -0.38482916 0.15004244
000070 f7 3d a3 bd 63 f4 c2 3d 56 c5 9a 3d 6b ae d3 3d
       -0.07970803 0.09519269 0.0755717 0.10336002
000080 14 3f 60 bd 8c ed af 3d 19 6c eb bd 56 5e ce bb
       -0.054747656 0.0859023 -0.11495227 -0.006297867
000090 e3 85 c9 3d 1c e4 06 3c 1d 5a ad 3d 76 22 a3 3d
       0.0983999 0.008233096 0.08464453 0.07965557
0000a0 77 4d f5 bd ef 1a 1f 3c cb d3 25 3e 6a 12 61 3c
       -0.11977666 0.009711011 0.16194074 0.0137373
0000b0 b9 24 a6 bd 37 42 35 3e 3e 9e 41 bd 0e f8 22 be
       -0.08112473 0.1770104 -0.047270052 -0.15914938
0000c0 c7 61 d0 3c 19 71 f3 3b bf 94 42 be be e9 98 3d
       0.025437249 0.007429254 -0.19002055 0.07466458
0000d0 16 d4 cf bd 16 01 70 be a3 be 81 be fc 9b 83 be
       -0.10147874 -0.23437914 -0.25340757 -0.25704944
0000e0 e2 06 ec bd 57 85 42 be 3c 0c 9a be 40 1a d1 bd
       -0.1152475 -0.18996178 -0.3008746 -0.10210085
0000f0 a0 9a ae bd f2 16 08 be 06 bc f6 bd ce 65 d6 bc
       -0.08525586 -0.13290003 -0.120475814 -0.026171591
000100 b1 a9 29 3d e3 23 57 3e 7c e9 a1 be bb ef c0 bd
       0.041421596 0.21009783 -0.31623447 -0.09420725
000110 60 e3 c7 3d 99 b6 8f 3e 9b ca 85 3e be e1 9a 3d
       0.09760165 0.28068998 0.26131138 0.07562588
000120 0f b2 44 be 9c c3 c1 3d 6a f4 33 be f0 3b 91 be
       -0.19208549 0.09461138 -0.17573705 -0.2836604
000130 49 61 b6 bd 9e 98 ba 3c 1c 5a cb 3d 6c 53 80 3e
       -0.089052744 0.022777852 0.099292964 0.25063646
000140 52 2f 70 3e 4e 01 24 3e a8 23 6f 3e ba 65 99 3e
       0.23455551 0.16016123 0.23353446 0.29960424
000150 3c 68 05 3e a8 97 33 3e ea 5e 27 3e dd 77 63 3e
       0.13028044 0.17538321 0.163448 0.22213693
000160 1e 41 d7 3d 89 38 f6 3d f9 48 30 be f2 b6 b8 be
       0.10510467 0.12022502 -0.17215337 -0.36077076
000170 26 0f 78 bc b0 fa 0d 3d bb 4f 92 be 57 21 ea bd
       -0.01514033 0.034662902 -0.28576455 -0.1143214
000180 9c 5f 1b 3e 5a 97 3c be 87 66 81 be e1 d7 2f be
       0.15173191 -0.18417111 -0.25273535 -0.17172195
000190 bf 91 86 bd 05 f0 be bc 9a f0 fe bc 41 97 9d bd
       -0.065707676 -0.02330781 -0.031120587 -0.07694865
0001a0 3d 42 2a bc da 36 9c bd 3f b8 03 be 35 0b c7 bd
       -0.010391769 -0.076276496 -0.12863253 -0.097189344
0001b0 cf c8 b5 3d f2 cd 6e 3e 85 c1 f7 3d 30 03 1d be
       0.08876192 0.2332075 0.12097458 -0.15333247
0001c0 13 8a 9b 3c 4c ca 97 bd b5 7f 80 be b0 40 87 bd
       0.018986737 -0.07411632 -0.25097433 -0.06604135
0001d0 d5 e2 90 be fe da b9 3d 50 7f 77 3d 9e 52 84 bc
       -0.2829806 0.090749726 0.06042415 -0.016152676
0001e0 cb f4 8c be 39 73 39 3e 07 08 26 be 63 a7 43 3d
       -0.27530512 0.1811036 -0.16214 0.047767054
0001f0 9e 5e e5 3d a3 b0 a4 bd 37 98 93 be 14 0f 31 be
       0.111996874 -0.08041503 -0.28827068 -0.17290908
000200 24 b7 ca bb 09 c7 6b bd 1b b9 be 3e 19 19 8d 3e
       -0.006186383 -0.05756286 0.372506 0.2755821
000210 3b 8d 83 be 80 72 f0 3d 2b ae 96 be cc 77 ab be
       -0.25693688 0.11740589 -0.29429755 -0.33489835
000220 ed b4 51 be 5a 4d a3 be 33 a0 8d 3e 73 b0 47 3e
       -0.20479174 -0.31894952 0.27661285 0.19500904
000230 64 f4 ec 3e 88 4c b7 bd eb f6 f2 bd 7c 03 c6 bc
       0.46280205 -0.08950144 -0.11863502 -0.024171583
000240 79 db 9d be 04 4a a0 bd 65 74 90 be 47 34 bc 3e
       -0.30831507 -0.07826617 -0.28213802 0.36758634
000250 66 c0 ba 3d 25 b1 ab 3e cb eb 09 be 1d 61 9e bb
       0.09118728 0.33533588 -0.13468854 -0.004833354
000260 26 bf 71 bd b5 f6 61 be 44 46 bc bd 0e d0 29 be
       -0.059020184 -0.22066768 -0.091930896 -0.16583273
000270 8b 5d 4d bd 30 4a 43 3e d5 0a 2a 3e ee 53 d2 bd
       -0.050138038 0.19071269 0.16605695 -0.102699146
000280 07 e8 1c 3d 97 b3 34 be 59 a1 a5 bd ff 12 9a 3e
       0.038307216 -0.17646633 -0.08087415 0.30092618
000290 19 de 8e 3e 1b ac 59 be 78 eb 23 3e 91 fc c0 3d
       0.27903822 -0.2125706 0.16007793 0.09423173
0002a0 cb e0 6e be cd a4 55 bb 9d 90 1f 3e 9d ea a2 be
       -0.23327939 -0.003259945 0.1558251 -0.3181962
0002b0 c5 ab 05 3a 12 c6 05 3e c7 ed b5 be 28 27 8f bd
       0.0005099143 0.13063839 -0.35532972 -0.0698989
0002c0 ea 32 a0 bb 49 61 11 3d bd 1a 2c 3e f1 88 59 3e
       -0.004888882 0.03549317 0.16807075 0.21243645
0002d0 f2 ae 4d be d4 00 b2 3e 37 75 6c bc d6 e8 77 be
       -0.20086268 0.34766257 -0.014432243 -0.24209914
0002e0 c3 e5 67 3d 4b 30 92 bd e3 8d 00 bd d1 93 6e 3c
       0.056615602 -0.071381174 -0.031385314 0.014561609
0002f0 4e 4f 52 3e c3 e3 a7 bd cf fa be bd 83 95 ed bd
       0.20538065 -0.08197739 -0.09325182 -0.11600783
000300 1d 14 7a bd ea 12 49 3d 99 8a 1e be ce 03 45 bd
       -0.061054338 0.049090303 -0.15482558 -0.04809933
000310 32 13 65 3d 2d 7d b0 bb 31 96 19 be e4 4c b2 3d
       0.05592651 -0.005386016 -0.149987 0.08706072
000320 cf 99 a8 3d d7 8b 9f 3d 07 75 56 be 78 b9 2a 3e
       0.08232462 0.07790344 -0.2094308 0.16672313
000330 e9 61 03 bc c4 0c 8e bd 2b b9 94 be bc aa 2a 3e
       -0.008018949 -0.069360286 -0.29047522 0.16666692
000340 21 60 36 3e 66 f4 72 3d 0d c2 91 be 06 eb 90 be
       0.17810108 0.059315108 -0.28468361 -0.2830431
000350 e4 5e 72 be ab 1c 3e 3d 39 63 ca 3d b8 3c 3f 3e
       -0.2366901 0.04641406 0.098822065 0.18675506
000360 ee 34 a3 bc 8d 93 cd be a7 6e 89 be d7 2c 17 bd
       -0.0199227 -0.40151635 -0.26842234 -0.036907997
000370 98 c8 a4 be 1b 9b 89 bc 5d 90 88 3d 7d 4c d9 be
       -0.3218429 -0.016797593 0.0666816 -0.42441168
000380 d7 1a 13 be 3a 40 14 be 82 53 03 be f4 7b 07 3d
       -0.14365707 -0.14477625 -0.12824824 0.033077195
000390 67 ae 1c 3d f6 4d 9f 3b 14 9d b4 bc 8e 2f 18 be
       0.03825226 0.0048615886 -0.022047557 -0.1486189
0003a0 57 a4 c7 3d 5c 65 0a 3d 73 bf 42 3e b0 40 13 3e
       0.09748142 0.03378807 0.19018345 0.14380145
0003b0 b9 3b 36 3e 98 8b 4a 3e 0a 35 47 3e a1 71 48 3e
       0.1779622 0.19779813 0.19453827 0.19574596
0003c0 d1 d5 e9 3d d2 20 51 3e 01 d4 f7 3d 21 b5 9a be
       0.11417735 0.20422676 0.121009834 -0.30216315
0003d0 69 74 4b bf 09 75 81 bf 67 07 82 be 7a 92 8f be
       -0.794745 -1.0113841 -0.25396273 -0.2804144
0003e0 62 3b 26 bf 34 16 56 be 8d 4a 11 bf 74 2f 2c bf
       -0.6493436 -0.20906907 -0.5675438 -0.6725991
0003f0 4d 53 6a 3d ce 31 e9 bd dc 73 cc 3d 9a ee f1 3d
       0.057208348 -0.113864526 0.09983036 0.11813088

sequential_1/conv2d_3/Conv2D f4 [32, 3, 3, 16]
000000 19 83 df bd 12 3f b2 be ee e8 a7 be 98 85 d0 3d
       -0.10913677 -0.34813744 -0.327949 0.10181731
000010 3f a5 20 3e 67 49 29 be d4 db 3f be 90 55 33 3e
       0.15688036 -0.16531907 -0.18736202 0.17513108
000020 22 65 be 3d 8f d0 8e be 8c ff ae bd 26 54 84 be
       0.09296633 -0.27893493 -0.085448354 -0.2584545
000030 1c 6b 0d 3e 02 0d 37 be 4b 76 af be 2c b0 a8 3d
       0.1381039 -0.17876056 -0.34269938 0.08236727
000040 28 ce 7e 3e 95 1d 7b be 9c 60 e1 bd a2 64 39 3d
       0.2488333 -0.24523003 -0.11004755 0.045261987
000050 27 cd a3 3d 40 6e 07 be dd ee 82 be ab b2 3e 3e
       0.07998114 -0.13225651 -0.25572863 0.18622844
000060 fe 84 fb 3d 39 10 b1 be c0 86 fe bd 20 38 d6 bd
       0.122812256 -0.3458269 -0.12428045 -0.10459924
000070 3c 07 e8 3d c6 fd 20 be 5e b4 93 be 90 cf 86 be
       0.11329505 -0.15721807 -0.28848547 -0.26330233
000080 bc 48 ef 3a 72 40 a1 be 46 ea 47 be 7e de 0c be
       0.001825593 -0.3149448 -0.19522962 -0.13756749
000090 1a ef 93 3d 12 18 01 bd 23 38 fe bd f9 e7 33 3e
       0.072233394 -0.031517096 -0.12413051 0.1756896
0000a0 cd 2b 1b 3d 54 d5 02 bf c7 76 e6 bc 5f 86 a6 bd
       0.03788357 -0.5110676 -0.02813281 -0.08131098
0000b0 c1 60 38 3e 19 fb 24 be 9a a7 2e be 67 86 b1 be
       0.18005659 -0.16111411 -0.17056122 -0.34672853
0000c0 06 4d 26 3e 0b ec a8 3a 28 df 04 3d eb ba 20 be
       0.1624032 0.0012887729 0.03243938 -0.15696304
0000d0 4b 44 8f bd 8a 25 82 be 57 7d 27 3e c4 ef f2 bd
       -0.06995448 -0.25419265 0.16356407 -0.11862138
0000e0 3b 36 3e 3e 5d 9d 7e 3d 88 9b 96 3d c4 cc 74 bd
       0.18575375 0.062161792 0.07353884 -0.059765592
0000f0 7a 1c 5a bd cf 16 9f 3d cd c7 57 3e 0d a7 56 be
       -0.053249814 0.07768022 0.21072312 -0.20962162
000100 c3 7d 49 3d 70 91 1a 3d e7 00 c6 3d cc c8 f8 bd
       0.0491922 0.037736356 0.09668141 -0.12147674
000110 51 0d bb bd 90 c6 c4 bd d0 3c da bb 2d de 42 bc
       -0.09133399 -0.09608185 -0.0066600814 -0.011893791
000120 fe fd 27 3e 5c 78 85 bd 0c 75 c6 3d 7b 44 2b 3d
       0.16405484 -0.06517097 0.09690294 0.041813355
000130 a5 e7 06 3d 13 da a6 3b e0 42 45 3e b8 c6 f5 be
       0.032935757 0.0050919144 0.19263792 -0.48003173
000140 bf 48 df 3d 9d 6b e3 3d c7 ce 3f be 5d 04 16 bd
       0.10902547 0.1110451 -0.18731223 -0.036625255
000150 25 bf 7d b9 79 f9 c5 3c ec 53 2a 3e fa 96 53 be
       -0.00024199167 0.02416681 0.16633576 -0.20663062
000160 2d cd 6b 3e 17 72 94 3d f4 de 86 3e e3 60 0d 3d
       0.23027487 0.072483234 0.26341975 0.034516227
000170 b8 5c 72 3e 61 63 ef 3d 30 b1 46 3e e4 1e 86 bd
       0.23668182 0.11688877 0.19403529 -0.06548861
000180 8c a3 b1 3e ab ce 47 3c bf 17 3f be b3 32 32 be
       0.3469509 0.01219527 -0.18661402 -0.17402153
000190 4a d6 b2 3d 26 10 a9 bd 68 e5 e7 bc f2 25 1f be
       0.08732279 -0.08255033 -0.028307632 -0.15541819
0001a0 f8 4f ac bd 8d e6 bd bd f2 7b d4 3d 84 ad 02 be
       -0.0841369 -0.0927249 0.10375203 -0.12761503
0001b0 6b 48 87 bd 4a 8f 32 3c 34 2b 38 3d b0 71 04 3e
       -0.066056095 0.010898421 0.044963077 0.12933993
0001c0 6e 80 89 be 30 11 ef 3d d7 39 ff bc 3d ff a2 3e
       -0.26855797 0.116732 -0.03115551 0.31835356
0001d0 13 23 be 3d 8d 0d b5 3d b8 dc 4b 3e ff 85 8c 3c
       0.092840336 0.08840475 0.19908416 0.017153738
0001e0 11 e1 85 bd 08 06 8d bd 36 b7 68 3d 1c 61 84 3d
       -0.06537069 -0.06885916 0.05681535 0.06463835
0001f0 0f 82 92 bc b7 66 0c be 16 80 26 3e cd 15 68 bb
       -0.017884282 -0.13711058 0.16259798 -0.0035413385
000200 cf a5 49 3d 79 b3 57 3d 0c c1 cb 3d 37 39 22 bd
       0.049230393 0.052661393 0.0994893 -0.039605346
000210 a6 81 52 3e 3f 25 05 be 10 b5 7a 3d 0d ad 08 be
       0.2055727 -0.1300249 0.06120783 -0.13347264
000220 f0 6b fe bd 22 a7 95 be 33 17 cd 3d ea 15 95 3e
       -0.12422931 -0.29229075 0.100141905 0.29118282
000230 6b cb ef 3d 9c 49 10 bd 87 b0 0e 3e 66 44 0e 3e
       0.11708721 -0.03522645 0.13934527 0.1389328
000240 6b d8 8b bd a7 af 02 bd 84 fd ce bd 61 e9 30 3e
       -0.06828388 -0.031905796 -0.10106948 0.17276527
000250 e0 77 8a 3d b8 27 6c be d9 b3 35 3e 1d 97 70 bd
       0.067611456 -0.23062027 0.17744388 -0.058737863
000260 7d 22 f0 3d 80 9f 3a be 44 7f 9b 3d 61 52 1f be
       0.11725328 -0.18224907 0.07592633 -0.15558769
000270 da bc 18 3e 53 41 1b 3e 45 ec c5 3e 06 bb 2a 3e
       0.14915791 0.15161638 0.38656822 0.16672906
000280 59 dd c2 3d 15 5e d2 3d 78 d8 9c be 50 28 21 be
       0.09514875 0.10271851 -0.30633903 -0.15738034
000290 25 33 cf 3d 54 23 4e 3d a4 d1 54 bd 02 3a bf be
       0.10117177 0.05032666 -0.05195774 -0.37348944
0002a0 98 c5 97 be 2f 1d 7f be 24 a0 a5 3d 13 b4 15 be
       -0.2964294 -0.24913476 0.08087185 -0.14619474
0002b0 f6 4b 97 bd 2e 24 88 3d ef 96 5a 3d 25 19 99 bd
       -0.07387535 0.06647526 0.053366598 -0.07475499
0002c0 ef a6 b7 3c 13 13 38 3e c7 38 95 3c 9c 69 b8 be
       0.022418467 0.17976026 0.01821555 -0.36018074
0002d0 c5 e1 83 be 7e 15 c9 bd 2f 75 5c be 08 f7 d7 be
       -0.25758186 -0.098185524 -0.21529077 -0.42180657
0002e0 b1 73 56 3d fb ab 2d 3e 6e 03 32 be f6 2a 5c be
       0.052356426 0.16960137 -0.17384121 -0.21500763
0002f0 9a e7 22 bd 4f d8 8d be 91 42 8a 3d b1 7b f3 bc
       -0.039771654 -0.27704093 0.06750978 -0.029722067
000300 6d 99 63 be b5 c9 ad 3d 44 d7 88 be f8 94 7d bd
       -0.22226496 0.08485738 -0.26726735 -0.061909646
000310 bd 08 b1 bb f5 9b c0 bd c0 9e b5 3d ed c7 39 be
       -0.005402653 -0.094047464 0.0886817 -0.18142672
000320 ca dd b3 3d 45 86 f1 3c 5f f4 26 3e c0 fd 6c be
       0.08782537 0.02948297 0.16304158 -0.23143673
000330 3f 56 1c be c9 54 16 3e cf 2a 36 3d 35 c8 9c be
       -0.15267275 0.1468078 0.04447442 -0.30621496
000340 ba 60 d9 3d d0 ff c4 3d bf b5 4c be 49 4c f5 3c
       0.10614152 0.09619105 -0.19991206 0.029943602
000350 59 86 94 3c 30 04 02 bd b6 98 c4 3d 47 72 a8 be
       0.018130468 -0.031742275 0.0959944 -0.32899687
000360 23 d6 ff be e9 5c 93 bd 34 44 ff 3d ad 5a 9f be
       -0.4996806 -0.071954556 0.124641806 -0.31123868
000370 23 3b 42 3e 17 18 ea 3d 4d 7b a3 3e a8 05 68 3e
       0.18967871 0.11430376 0.3193001 0.22658408
000380 1d 0a b5 3d a7 37 25 be 3b 5b 8d be d1 e6 5d be
       0.088398196 -0.16134511 -0.27608666 -0.2167008
000390 05 6a 9c 3b 77 16 65 3e 5a a8 86 3d ee 08 f9 be
       0.0047733807 0.22371851 0.06575079 -0.48639625
0003a0 42 89 8b bd 75 7d ad bd 63 cc 7c bd bf 13 80 be
       -0.06813289 -0.08471195 -0.061718356 -0.25015065
0003b0 42 fb b5 3d de a3 14 be 5a 55 f9 3d cc 9a 21 ba
       0.08885814 -0.14515635 0.12174483 -0.0006164729
0003c0 6e a5 88 bc 96 ad 85 bd 18 e4 38 bd 5b 13 0c be
       -0.016680446 -0.065272495 -0.045139402 -0.13679259
0003d0 a7 90 e2 bd fb 43 ed 3d 31 0f 36 be 91 9f b5 bd
       -0.110627465 0.11585232 -0.17779233 -0.088683255
0003e0 b9 3d da bd 3a c6 14 be e5 d9 ce bd a0 95 4c be
       -0.10656304 -0.14528742 -0.10100154 -0.19978952
0003f0 13 e3 aa bd 6a a4 5f 3c 83 04 89 3d 0e fa 61 3d
       -0.08344092 0.013650039 0.06690314 0.05517011
